ddu_ip_layer_final.tflite (tflite, 440520 bytes, 6 tensors)

sequential/dense_1/BiasAdd/ReadVariableOp f4 [150]
-0.53425914 -0.6058141 -0.40424475 -3.8885329 -2.4025078 0.29207858 -0.09254529 -0.8614397
-0.635857 1.0096115 0.18123654 -2.2014031 0.062772565 -1.0221342 0.16019389 -2.8658874
-5.2075253 -0.71452475 0.42513576 -0.16496901 -5.319214 0.79831064 1.0087894 -0.63899505
-2.608702 -2.079423 2.4208221 4.650367 -0.9147279 -0.9090491 -0.6555939 -0.3583457
-1.1161354 2.487441 -1.457601 -0.8096512 -3.0583494 6.906819 -1.7539986 -0.3355303
4.8760138 0.52102673 -0.20222719 3.1350753 0.8316125 3.251439 -0.14535363 -0.35131866
-0.115208074 -2.484117 2.2123992 -1.089903 -0.058824785 -3.954688 -2.4317288 -1.9107074
-0.53981113 0.78379357 -3.1194117 -4.129099 0.21341862 -0.3246174 -1.0407873 -0.9025592
4.0534725 -1.9133711 -0.79497 -0.11079709 0.14992608 -1.0312737 -0.62164986 2.0332913
-1.1227471 -1.9956715 0.67339283 -1.4981453 -2.358682 -2.8946328 -1.5033603 -3.022811
-0.18976773 -1.0499039 -1.0319405 -0.5083459 -1.3846273 -1.3016316 -2.5712576 -0.60098946
-0.027030177 3.114852 -0.6586623 -0.84468746 -0.13198024 -3.4880762 -2.4080224 3.0908806
0.20022336 -1.2202557 -0.9542822 -0.29867584 -2.5775251 -0.13310054 5.172194 -1.1450305
2.0797122 -1.8526721 -0.14916052 -1.7618009 -0.08471694 0.8061361 -2.6039443 -1.508808
-0.6445481 0.1571706 -0.033455595 -0.404848 -0.06307284 -2.6258533 -1.1470401 -0.12384862
0.36019504 0.16008179 2.8700812 -3.4851434 -3.5492313 2.368094 -3.9120145 1.4522066
-2.4025633 -0.087064855 -1.227254 0.7957804 0.081319734 -0.004434095 -0.1654781 -0.8144731
-0.741111 -0.13568936 -3.0448341 -0.8837142 -1.1217278 -3.149969 -0.5002851 -1.8786682
-1.8382417 -1.2988831 -0.28304133 -4.8722305 -1.7403706 0.7075318
00000000: 35c5 08bf a216 1bbf 2bf9 cebe b9dd 78c0
00000010: b0c2 19c0 538b 953e 6388 bdbd 5087 5cbf
00000020: 86c7 22bf f33a 813f 1296 393e cae3 0cc0
00000030: e78e 803d 4bd5 82bf de09 243e b36a 37c0
00000040: 0ca4 a6c0 18eb 36bf 65ab d93e a3ed 28be
00000050: 0037 aac0 165e 4c3f 0320 813f 2e95 23bf
00000060: f9f4 26c0 4415 05c0 c0ee 1a40 cecf 9440
00000070: 9c2b 6abf 71b7 68bf 00d5 27bf 1679 b7be
00000080: 86dd 8ebf 3c32 1f40 ab92 babf 4d45 4fbf
00000090: ffbb 43c0 a904 dd40 0783 e0bf a1ca abbe
000000a0: 4e08 9c40 0262 053f a514 4fbe 13a5 4840
000000b0: 8fe4 543f 9417 5040 95d7 14be 0ae0 b3be
000000c0: 36f2 ebbd c6fb 1ec0 f397 0d40 f181 8bbf
000000d0: 42f2 70bd 9c19 7dc0 72a1 1bc0 0f92 f4bf
000000e0: 1031 0abf b2a6 483f 71a4 47c0 9421 84c0
000000f0: 698a 5a3e 4034 a6be 8538 85bf 1f0e 67bf
00000100: 0cb6 8140 58e9 f4bf 2783 4bbf 96e9 e2bd
00000110: 3986 193e c700 84bf 7224 1fbf 7221 0240
00000120: 2db6 8fbf 2a72 ffbf 7963 2c3f 3ac3 bfbf
00000130: a5f4 16c0 aa41 39c0 1c6e c0bf bc75 41c0
00000140: 7952 42be 4063 86bf a016 84bf f522 02bf
00000150: 783b b1bf dd9b a6bf 7c8f 24c0 72da 19bf
00000160: 646e ddbc bc59 4740 189e 28bf 703d 58bf
00000170: d425 07be a43c 5fc0 0a1d 1ac0 fdd0 4540
00000180: 5a07 4d3e 5731 9cbf d74b 74bf 0aec 98be
00000190: 2cf6 24c0 824b 08be 9d82 a540 5c90 92bf
000001a0: 011a 0540 5c24 edbf 89bd 18be b182 e1bf
000001b0: 1380 adbd ef5e 4e3f 06a7 26c0 9f20 c1bf
000001c0: 1b01 25bf 54f1 203e bc08 09bd 3d48 cfbe
000001d0: 552c 81bd fb0d 28c0 36d2 92bf 58a4 fdbd
000001e0: 7c6b b83e 7bec 233e 69af 3740 970c 5fc0
000001f0: 9b26 63c0 da8e 1740 725e 7ac0 e8e1 b93f
00000200: 99c3 19c0 0f4f b2bd a916 9dbf 44b8 4b3f
00000210: f68a a63d e34b 91bb 1773 29be 4f81 50bf
00000220: 73b9 3dbf 27f2 0abe 90de 42c0 183b 62bf
00000230: c794 8fbf 1899 49c0 af12 00bf 3378 f0bf
00000240: 814b ebbf cd41 a6bf cbea 90be 50e9 9bc0
00000250: 77c4 debf ce20 353f

sequential/dense_2/BiasAdd/ReadVariableOp f4 [7]
2.022075 0.31443202 -0.6573588 1.2227325 0.38828358 -6.046054 2.7557647
00000000: ad69 0140 3cfd a03e ab48 28bf 8082 9c3f
00000010: 1bcd c63e 4679 c1c0 735e 3040

sequential/dense/BiasAdd/ReadVariableOp f4 [400]
-0.063178316 -0.035413396 -0.0066341665 -0.0284276 -0.014096304 -0.013482481 0.0 0.0
-1.0350074 0.0 -0.00380138 0.0 -0.040820237 -0.046086326 0.0 -0.0027069498
0.2477735 -0.046479046 0.069975145 -0.23865259 -0.01867543 -0.004335509 0.052835245 0.19767392
-0.05523906 -0.0028545612 -0.05030459 -0.12576328 0.031330332 0.0 0.74885726 -0.010293114
-0.014851817 -0.011425248 -0.038566645 -0.116451524 -0.063288264 -0.07540162 -0.23076968 -0.028436124
-0.03746966 -0.010337691 -0.0068494882 -0.027094044 1.2475709 0.0 0.0 0.017176917
-0.0053209933 -0.6514806 0.0 -0.0042768456 -0.037869446 -0.0035545405 0.167122 -0.016807316
0.0977256 -0.00743252 -0.017062325 -0.009187132 0.005824558 0.13310818 -0.012420254 -0.5869217
0.79438365 -0.033663157 0.0 -0.056400355 -0.024825016 -0.080996335 -0.007926078 -0.031820662
0.0 -0.039430026 0.2329364 -0.30869254 -0.026459321 -0.16602106 -0.014910804 -0.034737766
-0.01510213 0.014068885 -1.0845277 -0.0068120495 0.0 -0.00057074474 0.06808216 0.0
0.0 -2.4737408 0.09715127 -0.04230648 -0.39190468 0.025476208 -0.026646102 0.027183099
-0.026635146 -0.02411935 -0.038881782 0.44877842 -0.05559443 -0.014709912 -0.010118907 0.040262975
-0.00031337322 0.0 -0.0124761565 0.033616006 0.0 0.01864532 -0.012570972 -0.0051127626
-0.01184518 0.0 -0.13404681 0.003263109 -0.008316216 -0.10735351 -0.12971276 0.32987064
-0.0038510507 0.0 -0.01645789 -0.05194166 -0.009886174 0.10439354 -0.0011124461 0.0
0.14110394 -0.007939535 0.0 -0.06854613 -0.012805856 -0.031032585 0.0954336 -0.027542923
0.11357448 -0.039367177 -0.005970127 0.00034202414 -0.021291764 -0.4580753 -0.004964712 -0.058452886
-0.005704582 -0.009421945 -0.059218038 0.0 -0.031111922 -0.52315414 0.003130816 -0.0070372093
-0.040424623 -0.026034534 -0.03825825 -0.29056224 0.21229126 -0.005147619 -0.014514639 -0.022408554
0.0 0.014442604 -0.70469016 -0.13100259 -0.0147830155 -0.0035877286 -0.009004703 0.0033905439
-0.12659825 1.1290654 -0.03368572 0.0 -0.009312459 -0.042539377 0.0 0.0
0.038011838 0.0 0.014778008 -0.01960591 -0.0031234468 -0.15158728 -0.0132892495 -0.009962719
-0.0005279661 0.0 0.025463676 -0.00061472604 -0.114894256 0.124459855 -0.051798236 -0.66896516
-0.25513497 0.00075760705 0.0 -0.0073036384 -0.0067908154 -0.04798494 -0.0036014027 -0.02087251
0.0004778687 0.11657743 -0.008118266 0.6953191 -0.051367417 0.0 -0.104387194 -0.10455136
-0.0037880938 0.0 -0.01882852 -0.004561079 -0.662499 -0.020209802 0.0 -0.009445381
-0.019814145 -0.01937622 0.058267854 -0.015906869 -0.050285637 0.0 -0.05780722 0.0
-0.0067667053 -0.035241935 -0.013873261 0.048596583 -0.011428375 -0.025720099 -0.0145417815 -0.055524204
-0.3504268 0.011530986 -0.02195112 -0.0077786637 0.0051921955 -0.42581126 -0.0013263541 -0.01774971
-1.81483 -0.0081394585 -0.073492 -0.02057741 -0.021953573 -0.20679139 -0.009587956 -0.0068892357
0.0029955292 -0.0009962359 -0.27903053 0.0 -0.0047330237 -0.08387366 -0.62377805 -0.00223593
00000000: a263 81bd a30d 11bd 6c63 d9bb 00e1 e8bc
00000010: 2ff4 66bc a0e5 5cbc 0000 0000 0000 0000
00000020: 1f7b 84bf 0000 0000 9320 79bb 0000 0000
00000030: 1f33 27bd 04c5 3cbd 0000 0000 1567 31bb
00000040: 56b8 7d3e d060 3ebd 214f 8f3d 5861 74be
00000050: 37fd 98bc e310 8ebb c569 583d 086b 4a3e
00000060: 5a42 62bd 9713 3bbb 300c 4ebd 17c8 00be
00000070: 3c54 003d 0000 0000 1cb5 3f3f 73a4 28bc
00000080: 0955 73bc f730 3bbc 0ff8 1dbd 237e eebd
00000090: 479d 81bd 2a6c 9abd e34e 6cbe e0f2 e8bc
000000a0: c979 19bd 6b5f 29bc ac71 e0bb 54f4 ddbc
000000b0: 67b0 9f3f 0000 0000 0000 0000 9bb6 8c3c
000000c0: ba5b aebb 6fc7 26bf 0000 0000 c824 8cbb
000000d0: fe1c 1bbd 4bf3 68bb 0822 2b3e 7faf 89bc
000000e0: 5c24 c83d 7f8c f3bb 4ac6 8bbc a085 16bc
000000f0: efdb be3b 834d 083e 527e 4bbc 8040 16bf
00000100: ba5c 4b3f 61e2 09bd 0000 0000 0f04 67bd
00000110: d55d cbbc 68e1 a5bd 61dc 01bc 6256 02bd
00000120: 0000 0000 6181 21bd e186 6e3e f30c 9ebe
00000130: 38c1 d8bc 6d01 2abe 724c 74bc 3049 0ebd
00000140: ed6e 77bc 2e81 663c ced1 8abf 9d37 dfbb
00000150: 0000 0000 089e 15ba a96e 8b3d 0000 0000
00000160: 0000 0000 c551 1ec0 3ff7 c63d 8f49 2dbd
00000170: bba7 c8be 7bb3 d03c ed48 dabc 17af de3c
00000180: f331 dabc f195 c5bc 8142 1fbd 49c6 e53e
00000190: fcb6 63bd d801 71bc c6c9 25bc caea 243d
000001a0: 3e4c a4b9 0000 0000 cb68 4cbc f0b0 093d
000001b0: 0000 0000 12be 983c 7af6 4dbc f688 a7bb
000001c0: 4912 42bc 0000 0000 9143 09be e2d9 553b
000001d0: bd40 08bc 28dc dbbd 6cd3 04be cee4 a83e
000001e0: e961 7cbb 0000 0000 b2d2 86bc c7c0 54bd
000001f0: 9ff9 21bc 48cc d53d 7fcf 91ba 0000 0000
00000200: 8d7d 103e d314 02bc 0000 0000 ea61 8cbd
00000210: a7cf 51bc 0c38 febc b172 c33d b2a1 e1bc
00000220: bd99 e83d 7a3f 21bd 0ea1 c3bb b451 b339
00000230: 116c aebc d988 eabe 06af a2bb 4b6c 6fbd
00000240: 81ed babb 805e 1abc 9d8e 72bd 0000 0000
00000250: 6ede febc 6eed 05bf 602e 4d3b 6498 e6bb
00000260: 4a94 25bd 6046 d5bc afb4 1cbd 93c4 94be
00000270: e162 593e 5cad a8bb cfce 6dbc 2592 b7bc
00000280: 0000 0000 aca0 6c3c 9366 34bf 8b25 06be
00000290: 7634 72bc 1920 6bbb 7688 13bc e333 5e3b
000002a0: f9a2 01be 3785 903f 0afa 09bd 0000 0000
000002b0: 4993 18bc c53d 2ebd 0000 0000 0000 0000
000002c0: 4db2 1b3d 0000 0000 751f 723c 939c a0bc
000002d0: beb2 4cbb b239 1bbe 27bb 59bc ac3a 23bc
000002e0: 3567 0aba 0000 0000 3399 d03c 9125 21ba
000002f0: ae4d ebbd cfe4 fe3d 632a 54bd 4d41 2bbf
00000300: 0da1 82be 269a 463a 0000 0000 5c53 efbb
00000310: 7d85 debb db8b 44bd 8305 6cbb d3fc aabc
00000320: 748a fa39 26c0 ee3d 7a02 05bc 6f00 323f
00000330: a466 52bd 0000 0000 f4c8 d5bd 061f d6bd
00000340: ab41 78bb 0000 0000 453e 9abc 1b75 95bb
00000350: 8999 29bf 078f a5bc 0000 0000 cdc0 1abc
00000360: 4651 a2bc e1ba 9ebc 46aa 6e3d 1f4f 82bc
00000370: 50f8 4dbd 0000 0000 43c7 6cbd 0000 0000
00000380: 3dbb ddbb d959 10bd ad4c 63bc 360d 473d
00000390: 143e 3bbc f5b2 d2bc a740 6ebc 596d 63bd
000003a0: 246b b3be 76ec 3c3c d6d2 b3bc 29e4 febb
000003b0: 4b23 aa3b ef03 dabe 0fd9 adba d767 91bc
000003c0: 594c e8bf 5d5b 05bc f982 96bd f591 a8bc
000003d0: fbd7 b3bc 1fc1 53be cd16 1dbc 19bf e1bb
000003e0: a450 443b 2194 82ba 17dd 8ebe 0000 0000
000003f0: 7b17 9bbb f4c5 abbd ebaf 1fbf ae88 12bb

sequential/dense/MatMul f4 [400, 120]
-0.0051203095 0.1383853 0.13064967 0.03899735 0.061552692 0.050250303 -0.011360165 0.11323793
0.014197495 0.13200285 0.14345069 0.04358663 0.094881184 0.09409934 0.14378482 0.120424435
0.12820633 -0.007047901 -0.023975408 0.12508248 0.010856622 -0.07885913 0.012395788 0.050486933
-0.10732639 0.059609134 -0.0055946265 0.09945732 -0.085267946 0.07078971 -0.049794488 -0.02982972
0.08642186 -0.10197407 0.0021454147 0.06449043 0.040347595 0.06399864 -0.0677877 -0.06312562
-0.100393 -0.04293646 -0.020717952 -0.028421953 -0.045495834 -0.13536437 0.019452306 -0.1879764
-0.20925592 -0.08789812 -0.13983767 0.020572435 -0.15848474 -0.015218594 -0.099991195 -0.19096886
-0.05824795 -0.007030632 -0.12959221 -0.120831266 0.041081 -0.12477215 0.07648656 -0.105568625
-0.12503639 -0.033759803 -0.029221445 0.06450859 0.044321947 0.025483392 -0.041494496 0.04504461
-0.14366426 -0.11469049 -0.11140772 0.085350834 -0.029743291 0.014283315 -0.14394431 0.019713745
-0.011178868 0.014182865 0.033047114 0.022875663 0.008513647 0.054010313 -0.064485066 -0.09351694
0.017936489 -0.010548278 0.07378975 -0.08829367 0.0019745561 -0.10391283 -0.12244654 0.051439777
-0.035569932 -0.013672167 0.0628575 -0.028641833 0.04888874 0.085253306 0.124556325 -0.0030520125
-0.0359625 -0.010414438 0.015988614 -0.049633984 -0.00023214407 -0.03412622 -0.039137084 -0.05200637
-0.07156678 0.050546642 -0.100989215 -0.041806076 0.020041099 -0.12129457 0.074337274 -0.08243024
0.04656456 -0.14072205 -0.105297446 -0.0028798415 -0.13714793 -0.02874681 -0.04485668 -0.02937706
-0.011139885 -0.062818415 -0.07955108 0.011087394 -0.081290625 -0.09591474 0.019918175 -0.07788209
-0.0060407254 -0.04318764 0.039061047 -0.08202307 0.18263452 -0.048645236 0.11674815 0.091228314
-0.045449 0.06706717 0.14415196 -0.042074353 0.020689609 0.10804184 0.08644046 0.15493785
0.12228261 0.06096137 0.14799689 0.13763085 -0.007450927 0.066872545 0.019269163 0.02742454
-0.12852517 0.0722303 0.020496162 -0.09092357 -0.005984475 0.011127478 -0.023010405 -0.069645494
-0.11312663 0.0219199 0.027834034 -0.002391884 0.0174071 -0.023073716 -0.03894925 0.00058893714
0.06691858 -0.06261732 -0.06812986 0.012748715 -0.007974059 0.07085781 -0.096548855 -0.11915887
-0.094956174 -0.004338577 -0.12216884 -0.12534635 0.07771282 -0.08988404 -0.13058065 -0.080914356
0.100385725 0.116395615 0.029920703 -0.0622674 -0.038273357 -0.04147097 -0.0077713057 -0.04491524
-0.11962384 -0.09103652 0.024763918 -0.01338429 -0.025320033 0.037942864 0.026485967 0.007920772
-0.12437288 -0.14265037 0.056219973 0.06849491 -0.11179931 0.08169109 0.016745029 -0.06488831
0.12288024 0.10939172 -0.0588956 -0.0013489506 -0.037975896 -0.054082472 -0.058633395 0.03778852
-0.12096136 -0.0005844142 -0.09249935 -0.078561775 0.025374021 -0.10573199 -0.15181778 -0.012742532
-0.14793572 0.09009937 0.122272536 -0.10877155 -0.17490517 0.047420498 0.023384877 -0.048699237
-0.05931538 -0.0011798517 -0.104295455 0.009946508 -0.11376672 -0.08592086 0.054434575 -0.107928984
-0.056746826 -0.11568241 -0.21518289 0.014608075 -0.02652725 -0.14182289 0.08483985 -0.030453114
00000000: 45c8 a7bb e0b4 0d3e 07c9 053e afbb 1f3d
00000010: ad1e 7c3d 43d3 4d3d fc1f 3abc 4ae9 e73d
00000020: 9c9c 683c c12b 073e bde4 123e e587 323d
00000030: 1151 c23d 28b7 c03d 543c 133e 16a1 f63d
00000040: 8548 033e 14f2 e6bb 1368 c4bc 9f15 003e
00000050: f9df 313c e580 a1bd b417 4b3c 63cb 4e3d
00000060: f0cd dbbd b528 743d 2153 b7bb 48b0 cb3d
00000070: f6a0 aebd 32fa 903d 4ef5 4bbd 755d f4bc
00000080: f2fd b03d c8d7 d0bd 169a 0c3b 8f13 843d
00000090: 8543 253d b811 833d 47d4 8abd 0148 81bd
000000a0: d89a cdbd 24de 2fbd b2b8 a9bc 28d5 e8bc
000000b0: d759 3abd f59c 0abe 715a 9f3c e37c 40be
000000c0: 2f47 56be ee03 b4bd 9b31 0fbe 8687 a83c
000000d0: d349 22be 6957 79bc 2fc8 ccbd 578d 43be
000000e0: 6795 6ebd 3761 e6bb d2b3 04be 6276 f7bd
000000f0: 8d44 283d 8a88 ffbd fca4 9c3d 5d34 d8bd
00000100: 8a09 00be b847 0abd d061 efbc 141d 843d
00000110: ee8a 353d 8cc2 d03c 22f6 29bd b280 383d
00000120: b91c 13be d9e2 eabd bb29 e4bd 6bcc ae3d
00000130: 34a8 f3bc 9104 6a3c 2366 13be b87e a13c
00000140: 9227 37bc 3f5f 683c 695c 073d be65 bb3c
00000150: d37c 0b3c eb39 5d3d bf10 84bd cf85 bfbd
00000160: 8bef 923c afd2 2cbc 151f 973d 50d3 b4bd
00000170: 8e67 013b 40d0 d4bd 40c5 fabd 84b2 523d
00000180: c7b1 11bd 3a01 60bc 6fbb 803d 47a2 eabc
00000190: 8f3f 483d 4999 ae3d 6317 ff3d 4604 48bb
000001a0: 6a4d 13bd 52a1 2abc 8efa 823c 014d 4bbd
000001b0: b36b 73b9 efc7 0bbd 354e 20bd a204 55bd
000001c0: 9b91 92bd ff09 4f3d 6fd3 cebd d93c 2bbd
000001d0: 3b2d a43c 4a69 f8bd 243e 983d 30d1 a8bd
000001e0: 7bba 3e3d 7119 10be 30a6 d7bd b9bb 3cbb
000001f0: 8270 0cbe 6e7e ebbc a3bb 37bd 29a8 f0bc
00000200: 1084 36bc f1a6 80bd adeb a2bd e7a7 353c
00000210: b37b a6bd f26e c4bd 712b a33c a580 9fbd
00000220: 47f1 c5bb 86e5 30bd 7afe 1f3d b6fb a7bd
00000230: 8b04 3b3e 3a40 47bd a719 ef3d e9d5 ba3d
00000240: bb28 3abd 835a 893d 929c 133e 2856 2cbd
00000250: 417d a93c 0a45 dd3d b207 b13d 07a8 1e3e
00000260: 4e6f fa3d a1b2 793d 7f8c 173e 1aef 0c3e
00000270: e826 f4bb 79f4 883d 5dda 9d3c 6ea9 e03c
00000280: 1a9c 03be 7bed 933d 91e7 a73c 2336 babd
00000290: 6a19 c4bb 0750 363c 5180 bcbc 4ca2 8ebd
000002a0: efae e7bd 5d91 b33c 3304 e43c 28c1 1cbb
000002b0: 5699 8e3c 1705 bdbc 4089 1fbd e762 1a3a
000002c0: 9c0c 893d 823d 80bd ab87 8bbd fcdf 503c
000002d0: a1a5 02bc e61d 913d 68bb c5bd 9109 f4bd
000002e0: 6278 c2bd 9f2a 8ebb a833 fabd cb5a 00be
000002f0: e627 9f3d 2015 b8bd efb6 05be 6db6 a5bd
00000300: 0897 cd3d d360 ee3d 431c f53c 1a0c 7fbd
00000310: 86c4 1cbd 77dd 29bd 70a6 febb 0bf9 37bd
00000320: 58fd f4bd 5b71 babd b3dd ca3c c849 5bbc
00000330: f56b cfbc fa69 1b3d 19f9 d83c 20c6 013c
00000340: 35b7 febd f012 12be ea46 663d 0f47 8c3d
00000350: 09f7 e4bd a84d a73d df2c 893c 2ae4 84bd
00000360: a3a8 fb3d c408 e03d 833c 71bd 45cf b0ba
00000370: 9d8c 1bbd 9585 5dbd 9229 70bd 23c8 1a3d
00000380: 97ba f7bd 6033 19ba 4d70 bdbd ffe4 a0bd
00000390: 2edd cf3c 038a d8bd 1f76 1bbe 0ec6 50bc
000003a0: 767c 17be 0586 b83d 066a fa3d 9ec3 debd
000003b0: 571a 33be ff3b 423d a491 bf3c da78 47bd
000003c0: aff4 72bd 41a5 9aba db98 d5bd aef6 223c
000003d0: 87fe e8bd 47f7 afbd caf6 5e3d df09 ddbd
000003e0: 5c6f 68bd e6ea ecbd e758 5cbe b556 6f3c
000003f0: ad4f d9bc 053a 11be 84c0 ad3d cf78 f9bc

sequential/dense_1/MatMul f4 [150, 400]
0.026252793 -0.08562362 -0.08877979 -0.078569226 -0.07902669 -0.085489996 0.046236023 0.08632371
-0.028449 -0.07998233 -0.055568323 0.067958295 0.054253522 0.098471545 -0.050896667 -0.0058633015
0.14531326 -0.008589411 -0.10194394 0.05277072 0.014350837 0.014794208 -0.93848187 0.008232876
0.049233668 0.07591285 0.09194894 0.054116603 -0.09989819 0.055312097 0.3901416 0.06468076
-0.044973303 -0.029387968 -0.015463692 0.07499188 0.025168948 0.06476797 0.0063853622 -0.0649359
0.06510806 0.08995336 -0.08399527 0.09012697 0.105731055 -0.060784977 -0.10206666 -0.025955874
-0.009960182 -0.21861598 -0.009155944 0.08875226 -0.034308217 -0.09694553 0.08162743 -0.0014856639
-0.040769722 0.097976916 0.089508645 0.04697889 0.028047826 -0.4612284 0.054007508 0.32678807
-0.3249039 -0.04391725 0.011664376 -0.018533554 -0.047989514 -0.1032316 0.06440446 0.05166383
0.028278992 -0.0815782 -0.008258199 -0.058874246 -0.048543043 0.09453872 -0.09547818 -0.049956072
0.036209192 0.0057239463 -0.41092712 0.004910201 0.004029371 0.014177114 0.046624444 0.0137099475
0.07332702 -0.45507994 0.04667872 -0.07366129 -0.075095624 0.064440794 0.062079895 0.035828847
-0.04687034 0.073446706 0.0045483857 -0.19946593 0.03771082 0.032609966 -0.0331952 -0.055804938
0.063614145 0.011261359 -0.07723628 -0.027542287 0.00593736 0.093786575 -0.0016868555 0.0870424
0.01082392 0.061409116 -0.04191174 -0.07043266 -0.10439621 -0.1018004 -0.046774533 0.44578084
0.08059194 0.0508119 0.038415886 0.04659496 0.04760366 -0.053586066 0.004403971 -0.03782984
0.2525506 -0.067518264 -0.06627156 0.048550606 -0.04920581 0.006752585 0.021594208 0.008252412
0.082795635 0.08667371 0.055002354 -0.094395965 0.018234842 -0.014718736 -0.09311848 -0.0033965593
0.09368208 -0.092312776 -0.08238339 -0.012408495 -0.049272757 -0.27882323 -0.016976746 0.0324617
0.071242675 -0.058441278 0.0074068545 0.0019792682 -0.2973467 -0.09199442 -0.08597228 0.039228648
-0.0011637956 0.020003304 -0.31270155 0.016707016 0.07896867 0.04375395 0.042098727 -0.078913614
-0.010142516 0.3318416 -0.08595829 0.013166539 -0.01218566 0.025027636 -0.0149258375 0.09139985
0.07103419 0.030733809 -0.09471066 -0.05423456 -0.09490797 0.051943958 -0.006483089 0.09520775
-0.07684729 -0.083178386 -0.008283694 -0.06899391 0.12141161 0.12661427 0.09349689 -0.2266044
0.013228049 -0.08545329 -0.065653294 -0.0069151586 0.043612625 -0.09538782 -0.027199166 0.008351887
0.012563153 0.18868335 -0.10003141 0.009307482 -0.044708848 7.919967e-06 -0.011174404 -0.010589637
-0.0019550312 0.06393416 -0.033432666 -0.054147873 0.24981718 0.03763808 -0.020157754 0.00300704
0.010308757 0.007954019 0.018523704 0.021738611 0.12155035 -0.084793776 0.016586918 0.00820902
-0.012647535 0.08913729 -0.018588286 -0.08085194 -0.015532573 0.009107513 -0.01124606 -0.0825595
-0.055578806 -0.02115782 0.059072893 0.06899801 0.09073645 -0.09213883 0.010347031 -0.07196524
0.055619165 -0.0326887 0.050776396 -0.10087221 0.029221704 0.111920215 -0.059290018 0.085271195
-0.04738629 -0.0376436 -0.25885868 -0.009046972 -0.033815563 -0.59662616 -0.0020209425 0.08038293
00000000: 1910 d73c 705b afbd 2ed2 b5bd e7e8 a0bd
00000010: bfd8 a1bd 6115 afbd fc61 3d3d 7cca b03d
00000020: e10d e9bc c7cd a3bd 9c9b 63bd b82d 8b3d
00000030: f138 5e3d 73ab c93d 0679 50bd f020 c0bb
00000040: 00cd 143e 9aba 0cbc fcc7 d0bd 1c26 583d
00000050: c61f 6b3c 6863 723c 5940 70bf 2fe3 063c
00000060: 3ea9 493d 3278 9b3d ba4f bc3d 5fa9 5d3d
00000070: 6c97 ccbd f08e 623d a4c0 c73e 5977 843d
00000080: ed35 38bd 09bf f0bc 6d5b 7dbc 5895 993d
00000090: 1c2f ce3c 12a5 843d 4d3c d13b 1dfd 84bd
000000a0: 6057 853d 7839 b83d b605 acbd 7d94 b83d
000000b0: 8689 d83d abf9 78bd 5308 d1bd 6aa1 d4bc
000000c0: 0830 23bc dedc 5fbe d002 16bc bfc3 b53d
000000d0: c686 0cbd 618b c6bd 482c a73d 9cba c2ba
000000e0: 27fe 26bd 1fa8 c83d 4f50 b73d f06c 403d
000000f0: 8ec4 e53c 2126 ecbe fa36 5d3d c450 a73e
00000100: ce59 a6be 93e2 33bd f01b 3f3c aed3 97bc
00000110: a790 44bd 176b d3bd 7ce6 833d 749d 533d
00000120: 58a9 e73c 7912 a7bd 664d 07bc 1f26 71bd
00000130: 12d5 46bd 849d c13d 108a c3bd bd9e 4cbd
00000140: 1750 143d f18f bb3b 0a65 d2be c0e5 a03b
00000150: d008 843b 2047 683c 46f9 3e3d b09f 603c
00000160: 7a2c 963d 3d00 e9be 2f32 3f3d bbdb 96bd
00000170: bccb 99bd 89f9 833d 7d47 7e3d 45c1 123d
00000180: 1dfb 3fbd 3a6b 963d a00a 953b cc40 4cbe
00000190: a976 1a3d 0792 053d b1f7 07bd b893 64bd
000001a0: 2248 823d 9081 383c 0e2e 9ebd 5da0 e1bc
000001b0: 308e c23b 2d13 c03d 7a19 ddba 4943 b23d
000001c0: d056 313c 2088 7b3d a5ab 2bbd 003f 90bd
000001d0: aecd d5bd ba7c d0bd a796 3fbd 633d e43e
000001e0: 630d a53d 2420 503d fa59 1d3d 5bda 3e3d
000001f0: 0efc 423d 107d 5bbd 304f 903b 76f3 1abd
00000200: 504e 813e 0447 8abd 62b9 87bd 00dd 463d
00000210: 088c 49bd ca44 dd3b 56e6 b03c 2035 073c
00000220: c290 a93d fc81 b13d 264a 613d ac52 c1bd
00000230: 3c61 953c da26 71bc e7b4 bebd cf98 5ebb
00000240: 64dc bf3d 7b0e bdbd 9fb8 a8bd 004d 4bbc
00000250: 3bd2 49bd ebc1 8ebe d112 8bbc 8ff6 043d
00000260: aee7 913d 1f60 6fbd 33b5 f23b 9cb6 013b
00000270: d43d 98be 9267 bcbd 3c12 b0bd 38ae 203d
00000280: 808a 98ba f8dd a33c 6b1a a0be 27dd 883c
00000290: 53ba a13d 5837 333d b76f 2c3d 769d a1bd
000002a0: cc2c 26bc 24e7 a93e e60a b0bd 78b8 573c
000002b0: 5da6 47bc c206 cd3c 808b 74bc d82f bb3d
000002c0: 607a 913d 78c5 fb3c aaf7 c1bd 0f25 5ebd
000002d0: 1c5f c2bd 30c3 543d 1870 d4bb 48fc c23d
000002e0: 1d62 9dbd 6e59 aabd 55b8 07bc ae4c 8dbd
000002f0: a6a6 f83d 2ca7 013e 4c7b bf3d fc0a 68be
00000300: 75ba 583c 2202 afbd 3c75 86bd 8e98 e2bb
00000310: 27a3 323d b05a c3bd c9d0 debc 5ad6 083c
00000320: afd5 4d3c 3536 413e 45dd ccbd 697e 183c
00000330: a020 37bd 00e0 0437 d914 37bc 2880 2dbc
00000340: fb1f 00bb eaef 823d b1f0 08bd 29ca 5dbd
00000350: 13d0 7f3e 632a 1a3d e021 a5bc c211 453b
00000360: 10e6 283c 9351 023c 06bf 973c 2c15 b23c
00000370: 64ef f83d 5ca8 adbd 4ae1 873c 207f 063c
00000380: 9b37 4fbc 9d8d b63d 7646 98bc b495 a5bd
00000390: 557c 7ebc ae37 153c 6541 38bc f514 a9bd
000003a0: 9aa6 63bd 2a53 adbc 6bf6 713d d44e 8d3d
000003b0: 08d4 b93d 48b3 bcbd 9886 293c 8362 93bd
000003c0: ecd0 633d 96e4 05bd e9fa 4f3d 1796 cebd
000003d0: 5b62 ef3c 6d36 e53d 17da 72bd aaa2 ae3d
000003e0: 2018 42bd 2d30 1abd 2089 84be c039 14bc
000003f0: 3082 0abd 7ebc 18bf ca71 04bb ce9f a43d

sequential/dense_2/MatMul f4 [7, 150]
-0.04244154 -2.0511744 0.15946025 -0.03931944 0.40205878 0.12284013 -0.14416778 0.81243765
0.3788463 0.5107075 1.0382392 0.5406339 0.4626797 0.47312504 0.107865445 -0.78546256
-2.2838871 -0.58450145 0.7133729 -0.102759115 0.55905527 -0.6102552 -0.64589286 -0.14789419
1.0815547 0.3451019 1.459832 0.26799962 -0.46839207 1.0925561 -0.24807581 -0.5475357
1.2393625 -0.33470163 0.53737897 -0.3161981 0.58357733 -0.57042605 0.42768484 0.048939757
0.3154619 -1.2121433 0.58003336 -0.3102851 0.09432131 0.9855104 0.4223119 0.49943215
-0.11135027 1.0517125 -0.411451 1.1708935 -0.1890913 0.092358 0.23241675 0.92014545
-0.3974382 1.326082 -0.17654285 -1.1130095 0.39166647 -0.09985831 -0.1706432 0.6353363
0.7816643 -0.0315437 -0.85251254 -0.0492684 -1.09799 0.16710293 0.23209144 -0.4914103
-0.34348997 0.70160717 0.3676325 -1.0354403 1.4879397 -1.1206635 0.20382302 0.66149974
0.7756367 -0.82866067 0.6121616 0.50829154 -1.5259101 -0.9425633 -0.20584759 0.75645816
0.72035265 -0.7749252 0.123154506 0.13915299 -0.061299685 0.36994734 0.9438154 0.7549952
-0.021030499 -1.4957467 -0.601658 -0.8962282 -0.919547 0.03259821 0.6546618 0.41438434
0.6669035 1.0583781 0.10756833 0.44888437 0.19444886 0.7666401 -0.12223233 -0.6135935
0.4602242 -0.71338195 -0.17809331 0.23374863 0.5567921 -0.53344023 0.1307316 -0.25722647
0.388801 0.6740572 0.35579324 1.0119576 0.76889133 0.42413148 0.48660398 0.18194717
-1.0962508 -0.071554765 0.14758624 -0.30809444 -0.7150544 1.0526848 -0.32297084 -1.1010395
0.02903968 -0.034347847 -0.3801281 0.16789192 0.017735926 0.018947234 -0.47219804 -0.56104887
-1.2775327 -1.4087281 0.29730475 -1.4448899 1.1454493 -0.23866682 -0.28970614 0.03161287
-0.12386569 1.4369234 -0.10522035 -0.8712233 0.16342852 -0.5549463 0.0799678 -0.21255186
-0.89091766 -0.6116735 -0.5564393 -0.26404417 -0.783405 1.8790655 0.89864624 1.2038586
0.15195493 -0.21463373 -0.36370128 -0.6638079 0.17546684 0.1514327 -0.3198158 0.44536623
0.76495945 0.7956783 0.23097701 0.49062288 -0.39362547 0.42057392 0.35665154 0.8970562
-1.0294402 -0.23445185 1.0544505 0.9409875 0.47018096 -0.16831979 0.90438485 0.24759674
0.100641936 -0.63541704 0.6347315 -1.1009823 -0.14141375 0.040838778 -0.038696393 0.15232888
-0.46280175 0.1360879 0.037135363 0.36520848 -0.31807277 -0.19768696 0.25806978 -0.19756448
-0.123455755 1.1295208 -0.814572 -0.56991506 0.28119546 -0.1506015 0.44537216 -0.82010597
0.27679005 0.11685551 0.19548996 -0.26703644 0.41033447 0.63553923 0.54557824 -0.3471961
-0.68513066 -0.054924384 0.09098518 0.21225804 -0.12166527 -0.33671835 -0.26052818 0.061422214
-0.9970225 -0.05873533 -0.07019886 -0.6216094 -0.5211211 -0.46150634 0.4082814 0.07730756
0.309232 -0.44889918 -0.08382557 0.40156317 -0.6365398 0.50744426 -0.5406114 0.51863945
0.8268276 -0.21637605 2.038285 -0.059837542 0.14338678 -0.27378777 0.51903766 -0.4060421
00000000: 2ed7 2dbd 7146 03c0 8c49 233e 6c0d 21bd
00000010: a6da cd3e 9b93 fb3d b8a0 13be eafb 4f3f
00000020: 24f8 c13e babd 023f 06e5 843f fc66 0a3f
00000030: 5be4 ec3e 723d f23e 8fe8 dc3d 1314 49bf
00000040: 352b 12c0 e3a1 15bf 9b9f 363f 5f73 d2bd
00000050: 3f1e 0f3f af39 1cbf 3c59 25bf 9371 17be
00000060: 6270 8a3f 32b1 b03e c6db ba3f 3f37 893e
00000070: 16d1 efbe e1d8 8b3f 9607 7ebe 4d2b 0cbf
00000080: 6ea3 9e3f 035e abbe ab91 093f b8e4 a1be
00000090: 5365 153f 7107 12bf 82f9 da3e 0e75 483d
000000a0: 3984 a13e 8327 9bbf 117d 143f b0dd 9ebe
000000b0: 882b c13d 694a 7c3f 4439 d83e 92b5 ff3e
000000c0: 9c0b e4bd 849e 863f b5a9 d2be d7df 953f
000000d0: 26a1 41be 3126 bd3d a8fe 6d3e a78e 6b3f
000000e0: 057d cbbe 0ebd a93f a6c7 34be 1877 8ebf
000000f0: 8288 c83e 8382 ccbd 17bd 2ebe 66a5 223f
00000100: 271b 483f f733 01bd 433e 5abf a9cd 49bd
00000110: f08a 8cbf 081d 2b3e 61a9 6d3e 219a fbbe
00000120: ebdd afbe 879c 333f 543a bc3e 4f89 84bf
00000130: cf74 be3f e771 8fbf fbb6 503e 0c58 293f
00000140: 2090 463f 1b23 54bf 9fb6 1c3f 651f 023f
00000150: 0651 c3bf d44b 71bf b6c9 52be 3ea7 413f
00000160: 0869 383f 7f61 46bf 6e38 fc3d 1f7e 0e3e
00000170: 6115 7bbd bd69 bd3e e39d 713f 5e47 413f
00000180: 2748 acbc a174 bfbf 4206 1abf 366f 65bf
00000190: 6f67 6bbf b385 053d ea97 273f 2f2a d43e
000001a0: 30ba 2a3f ef78 873f c94c dc3d 2cd4 e53e
000001b0: 9a1d 473e 8742 443f f254 fabd 7714 1dbf
000001c0: 82a2 eb3e 33a0 36bf 185e 36be cd5b 6f3e
000001d0: ed89 0e3f 8a8f 08bf 81de 053e 30b3 83be
000001e0: ed10 c73e 038f 2c3f 882a b63e d487 813f
000001f0: 10d6 443f c327 d93e 2824 f93e 5c50 3a3e
00000200: f251 8cbf 4e8b 92bd d920 173e 8ebe 9dbe
00000210: ce0d 37bf 60be 863f 6f5c a5be ddee 8cbf
00000220: 9fe4 ed3c 54b0 0cbd 26a0 c2be dceb 2b3e
00000230: ef4a 913c 3b37 9b3c f1c3 f1be e6a0 0fbf
00000240: 3186 a3bf 3451 b4bf 5438 983e 27f2 b8bf
00000250: 159e 923f 1365 74be 5d54 94be 7f7c 013d
00000260: 4bad fdbd 1bed b73f c47d d7bd 7d08 5fbf
00000270: ce59 273e f610 0ebf 28c6 a33d 32a7 59be
00000280: 2e13 64bf a296 1cbf ce72 0ebf cc30 87be
00000290: 3b8d 48bf 3885 f03f ae0d 663f 0a18 9a3f
000002a0: 139a 1b3e f2c8 5bbe 0e37 babe 51ef 29bf
000002b0: 94ad 333e 2c11 1b3e e6be a3be 0b07 e43e
000002c0: 62d4 433f 93b1 4b3f 3d85 6c3e ec32 fb3e
000002d0: 4789 c9be 7755 d73e 089b b63e 7aa5 653f
000002e0: b2c4 83bf 2514 70be 3cf8 863f 8fe4 703f
000002f0: 8fbb f03e 065c 2cbe c485 673f 008a 7d3e
00000300: 5c1d ce3d b1aa 22bf c37d 223f fdec 8cbf
00000310: c4ce 10be 9046 273d 1c80 1ebd 1afc 1b3e
00000320: 5af4 ecbe a05a 0b3e 401b 183d 9bfc ba3e
00000330: 6fda a2be 736e 4abe b921 843e 584e 4abe
00000340: 5fd6 fcbd 2394 903f ca87 50bf f4e5 11bf
00000350: daf8 8f3e 4837 1abe d207 e43e 77f2 51bf
00000360: 6db7 8d3e f151 ef3d 852e 483e 00b9 88be
00000370: 5c17 d23e b3b2 223f 04ab 0b3f b0c3 b1be
00000380: b964 2fbf 64f8 60bd 7056 ba3d 2c5a 593e
00000390: a42b f9bd 5966 acbe f363 85be dc95 7b3d
000003a0: de3c 7fbf 7594 70bd 6bc4 8fbd cb21 1fbf
000003b0: 3168 05bf 8f4a ecbe 420a d13e 6d53 9e3d
000003c0: a853 9e3e 1dd6 e5be beac abbd b099 cd3e
000003d0: 46f4 22bf dee7 013f 8265 0abf 8ec5 043f
000003e0: f9aa 533f af91 5dbe 4373 0240 3618 75bd
000003f0: fcd3 123e e92d 8cbe a7df 043f c0e4 cfbe
