model.tflite (tflite, 270520 bytes, 6 tensors)

sequential/dense_1/BiasAdd/ReadVariableOp f4 [100]
0	0xbe94ab87	-0.29037115
1	0xbd330a00	-0.04371071
2	0xbd06aca5	-0.03287949
3	0x3e8f948d	0.28043023
4	0xbb1099a8	-0.0022064243
5	0xbd29159d	-0.041280378
6	0x3d4275b8	0.047475547
7	0xbcc53bc7	-0.024076356
8	0x3e8c31b1	0.27381662
9	0xbd8d419d	-0.0689728
10	0xbde32140	-0.11090326
11	0xbdf51925	-0.119676866
12	0xbb1f01b1	-0.0024262483
13	0x3d9b29ae	0.07576309
14	0x3e9cca31	0.3062301
15	0x3ca4707e	0.020073172
16	0x3e9cd5f5	0.30631986
17	0x3c79ca2c	0.015245955
18	0xba3d0d91	-0.00072117994
19	0x3c8cfff7	0.017211897
20	0xbe692794	-0.22769004
21	0xbd452ff3	-0.04814143
22	0x3d2683c7	0.040653016
23	0x3b3b8dc8	0.0028618444
24	0x3d121283	0.035662185
25	0xbd287c68	-0.041134268
26	0xbccb2a65	-0.024800489
27	0xbbf0b775	-0.0073460885
28	0xbd64f794	-0.05590017
29	0xbe38061d	-0.17971082
30	0xbe317852	-0.17331055
31	0xbeff0f21	-0.4981623
32	0xbde8de67	-0.11370545
33	0x3e176dd6	0.14787993
34	0xbda27aa1	-0.07933546
35	0xbd9a0fe4	-0.07522562
36	0xbd87de4f	-0.06634199
37	0x3e89525f	0.26820657
38	0x3dd8740e	0.10569011
39	0xbe1e0ac7	-0.15433799
40	0xbda3a725	-0.07990865
41	0x3b626e90	0.0034550764
42	0xbd87625b	-0.06610557
43	0xbe892845	-0.26788536
44	0x3c953105	0.01821185
45	0xbd2e523a	-0.042558886
46	0x3c6b2983	0.014353159
47	0x3ea4afed	0.3216547
48	0x3d8ab3aa	0.067725495
49	0xbe3050f9	-0.17218389
50	0x3e7b46f0	0.2453878
51	0xbcb7d4d0	-0.022440344
52	0xbe38ceba	-0.1804761
53	0x3dc2ad60	0.09505725
54	0xbd013c41	-0.031551603
55	0xbda26d89	-0.079310484
56	0xbdd9c13d	-0.106325604
57	0xbd3d4092	-0.046204157
58	0xbc235280	-0.0099684
59	0x3d875b8c	0.06609258
60	0xbcdc5361	-0.026895227
61	0x3d469f6e	0.048491888
62	0x3dc0be3e	0.09411286
63	0x3e70e22b	0.23523776
64	0xbd16cf5a	-0.03681884
65	0x3c2d026f	0.010559662
66	0xbc7386f0	-0.014863715
67	0xbd13b830	-0.036064327
68	0xbe2b9ddf	-0.16759442
69	0xbe824825	-0.25445667
70	0xbafae8a2	-0.0019142816
71	0xbd4af27e	-0.049547665
72	0xbd8f6245	-0.07001165
73	0xbc9429a8	-0.01808627
74	0xbdda1717	-0.10648935
75	0xbd17cf9f	-0.037063237
76	0x3dfc35de	0.12314962
77	0xbdbac3b8	-0.09119362
78	0xbde53514	-0.111917645
79	0xbd952e32	-0.07284202
80	0xbcaa9c9e	-0.020826634
81	0xbeb4ea94	-0.3533522
82	0x3e18c5bd	0.14919181
83	0xbd74e7ff	-0.05979156
84	0x3d1cbacd	0.038264085
85	0x3df20efa	0.11819263
86	0xba3edfb0	-0.0007281257
87	0xbc5826ba	-0.013192827
88	0x3daf6eba	0.08566041
89	0x3d10de3a	0.03536818
90	0xbe3e5498	-0.18586957
91	0xbc8f2214	-0.017472304
92	0x3b789e67	0.0037936212
93	0xbcb6ed1a	-0.022329856
94	0xbc8fab0f	-0.017537622
95	0xbc61552b	-0.013753216
96	0x3e6c81e2	0.23096421
97	0x3d1a4bb9	0.03766987
98	0xbce179eb	-0.027523955
99	0xbb367f44	-0.0027846852

sequential/dense_2/BiasAdd/ReadVariableOp f4 [7]
0	0xbec0a670	-0.37626982
1	0xbe6dd63c	-0.23226255
2	0x3f0b9b3d	0.5453375
3	0x3e9adf9e	0.3024873
4	0xbdda2b64	-0.10652807
5	0xbef8f4b4	-0.48624194
6	0x3eb4fdd0	0.35349894

sequential/dense/BiasAdd/ReadVariableOp f4 [300]
0	0x3c173926	0.009229934
1	0x3e040c7d	0.12895389
2	0xbc400c18	-0.011721633
3	0xbd0a0963	-0.033700358
4	0xba8ec67a	-0.0010892891
5	0x3caf81f8	0.021424279
6	0xbc5838c1	-0.013197125
7	0xbadbc0a5	-0.0016765787
8	0x3c8830dc	0.01662486
9	0x3b0bcaa1	0.0021330493
10	0xbc50e083	-0.01274884
11	0xbe24d668	-0.16097414
12	0x3d09644d	0.03354292
13	0x3d8405c6	0.06446414
14	0x3d613282	0.05497981
15	0xbbb69d37	-0.0055729407
16	0x3bba22ac	0.0056804027
17	0x00000000	0.0
18	0x3b4fcd90	0.0031708218
19	0xbe0ecf53	-0.13946275
20	0x3da3edff	0.080043785
21	0x3d0780a6	0.033081673
22	0x3d079e4e	0.033109955
23	0x00000000	0.0
24	0x3b4d0baa	0.003128747
25	0x00000000	0.0
26	0xbab53aea	-0.0013826762
27	0xbdea091b	-0.11427518
28	0xbd373673	-0.04472966
29	0xbbde7637	-0.0067889947
30	0xbd5e5a8a	-0.054285564
31	0x3c2a5a89	0.010397562
32	0x3c5a6cf7	0.013331643
33	0x3c30fb83	0.010802153
34	0x00000000	0.0
35	0x00000000	0.0
36	0xbc221739	-0.009893232
37	0x3ddbc9d5	0.10731856
38	0x3ba94835	0.0051660785
39	0x3c45dd8b	0.012076746
40	0xbba06baf	-0.0048956494
41	0xbb8a3783	-0.0042180433
42	0x3cccd463	0.025003618
43	0xbd7ad89b	-0.061241727
44	0xbb2e89da	-0.002663246
45	0x3c41c121	0.011825831
46	0xbc976745	-0.01848186
47	0x3d69f5da	0.057119228
48	0x3b9f3f3f	0.0048598344
49	0x3d24fb40	0.040278673
50	0xbc9ee636	-0.019396883
51	0x3caf54a3	0.021402663
52	0xbd1c8d6f	-0.03822082
53	0x3d4d2db6	0.05009242
54	0x3d050635	0.032476623
55	0x3c96f841	0.018428924
56	0xbd2077fd	-0.03917693
57	0x3cc37d67	0.023863507
58	0xb9a0b7e7	-0.00030654596
59	0x3cc44381	0.02395797
60	0xbb198571	-0.0023425485
61	0x3d98a900	0.07454109
62	0x3c07be6a	0.008285144
63	0xbd8f6a5a	-0.07002707
64	0xbd6c980a	-0.057762183
65	0xbd3401f2	-0.043947168
66	0x3d641dd5	0.055692513
67	0x3d36b58d	0.044606734
68	0xbdc17762	-0.094465986
69	0xbc92161a	-0.017832804
70	0x3d0b2f9b	0.033980947
71	0x00000000	0.0
72	0xbd69fd63	-0.057126414
73	0x00000000	0.0
74	0x00000000	0.0
75	0x3c571d9f	0.013129621
76	0x3d8f832b	0.0700744
77	0x3de6d2a3	0.112706445
78	0xbe057efe	-0.13036725
79	0xbe197271	-0.14985062
80	0xbcb410e9	-0.02198072
81	0xbb6af314	-0.0035850452
82	0x00000000	0.0
83	0x3cafb544	0.021448739
84	0xbb942c05	-0.004521849
85	0xbd8b6c27	-0.06807738
86	0x3ac8dc30	0.001532441
87	0x00000000	0.0
88	0xbe0430b5	-0.12909205
89	0x3c8f2fe1	0.017478885
90	0x3d111194	0.035417154
91	0xbc74de93	-0.014945644
92	0xbb4344fd	-0.002979576
93	0xbc8ca90c	-0.017170452
94	0xbc224dca	-0.009906242
95	0xbbdd9090	-0.006761618
96	0xbc8a1c71	-0.016859265
97	0xbd4a9130	-0.049454868
98	0xbd8dc91f	-0.069231264
99	0x3d49c626	0.049261235
100	0x00000000	0.0
101	0xbc1f1405	-0.009709363
102	0x00000000	0.0
103	0xbb716559	-0.003683409
104	0x3cae4e01	0.02127743
105	0xbab87117	-0.0014071789
106	0xbce97a34	-0.028500654
107	0xbc973e1f	-0.018462239
108	0xbdcfa356	-0.10138576
109	0x3c8e8d5e	0.017401394
110	0x00000000	0.0
111	0xbd286361	-0.0411104
112	0x00000000	0.0
113	0x3d87a9a7	0.066241555
114	0x00000000	0.0
115	0xbbb7dc20	-0.0056109577
116	0xbccec2a1	-0.02523929
117	0x00000000	0.0
118	0x3c9e9634	0.019358732
119	0x3b542673	0.003237155
120	0x00000000	0.0
121	0x00000000	0.0
122	0x3c2362df	0.009972303
123	0x3cc78bfc	0.024358742
124	0x3c1d3804	0.009595875
125	0xbdec1b5e	-0.115286574
126	0x3db548f2	0.08851804
127	0xba641f3a	-0.0008702163
128	0x3cdad18c	0.026711248
129	0x3c820146	0.015869748
130	0x00000000	0.0
131	0x3abac657	0.0014249784
132	0x00000000	0.0
133	0x3c717d73	0.014739382
134	0x39dd8248	0.00042249472
135	0xbc151d2c	-0.009101193
136	0xbe0bb518	-0.136433
137	0xbb4df5ba	-0.0031426982
138	0x3d417141	0.047227148
139	0x00000000	0.0
140	0x00000000	0.0
141	0xbe384dbd	-0.17998405
142	0x00000000	0.0
143	0x3c845d09	0.016157644
144	0x3b2b143a	0.0026104585
145	0x00000000	0.0
146	0x00000000	0.0
147	0x3ac2cdbe	0.0014862341
148	0x00000000	0.0
149	0x3d495764	0.049155608
150	0x3c5fdb6b	0.013663153
151	0x3ccc23ca	0.02491941
152	0xbb330fc8	-0.0027322639
153	0xbc9845f7	-0.01858805
154	0x00000000	0.0
155	0x3cf058f9	0.0293393
156	0x3d2c4e86	0.042067073
157	0x00000000	0.0
158	0xbe11951b	-0.14217035
159	0xbb708068	-0.003669763
160	0xbd17fead	-0.037108112
161	0x3c45df86	0.012077218
162	0xbe64b8ff	-0.22336195
163	0xbd35f0ff	-0.044419285
164	0xbd4800a2	-0.04882873
165	0xbda00299	-0.078129955
166	0x00000000	0.0
167	0x3d3a0798	0.0454174
168	0xbc463665	-0.01209793
169	0xbdb40905	-0.08790783
170	0xbd4bbf0e	-0.04974275
171	0x3c72b58b	0.014813791
172	0xbd8470ba	-0.064668134
173	0x00000000	0.0
174	0xbd709690	-0.058737338
175	0x3d82c4fa	0.063852265
176	0x3d1e5590	0.038655818
177	0xbbff7367	-0.0077957395
178	0x3d34ae60	0.04411161
179	0x3da9adba	0.08285089
180	0xbe232246	-0.15931043
181	0xbb06ac11	-0.0020549337
182	0x00000000	0.0
183	0x3c84afb5	0.016197065
184	0x3aed1c80	0.0018090159
185	0x00000000	0.0
186	0x3c2b6d75	0.010463108
187	0xbafef280	-0.0019450933
188	0x3c86ee64	0.016471095
189	0xbd3bf243	-0.045885336
190	0x3c0ba791	0.008523838
191	0x3c6463fc	0.013939854
192	0xbb03a51c	-0.0020087427
193	0x3ca08215	0.019593278
194	0x3dd36deb	0.103236996
195	0xbbea55ef	-0.0071513574
196	0x3c6467fa	0.013940806
197	0x00000000	0.0
198	0x00000000	0.0
199	0x3cd6ae32	0.02620611
200	0x3c37bff5	0.0112152
201	0xbd30845c	-0.043094978
202	0xbe3ef5da	-0.18648472
203	0x3ccaa2b7	0.024735792
204	0xbc265fd4	-0.010154683
205	0x3c71ddb2	0.014762329
206	0x00000000	0.0
207	0x00000000	0.0
208	0xbce5ef05	-0.028068075
209	0xbcf26036	-0.029586893
210	0xbd2efa5a	-0.042719223
211	0x3d1e43b4	0.038638785
212	0x3d0d0d80	0.034436703
213	0x3cb1050e	0.021608856
214	0x3ceb495d	0.028721506
215	0xba47dab4	-0.0007623837
216	0x3c825d49	0.015913622
217	0x3b4b72e2	0.0031043817
218	0xbd1659f8	-0.036706895
219	0x3cf18697	0.029483123
220	0x3d294819	0.041328523
221	0x00000000	0.0
222	0xbc9c6ed7	-0.019095821
223	0x3ce63086	0.02809931
224	0xbbf5f6f2	-0.007506245
225	0xbc4279a9	-0.011869826
226	0xbbcd9ea5	-0.0062750154
227	0x3cf56a88	0.029958025
228	0xbd93dc9e	-0.07219814
229	0x3cada415	0.021196404
230	0xbc929603	-0.017893797
231	0xbca35188	-0.019936338
232	0x3d85a979	0.06526465
233	0x3ab0085c	0.0013430226
234	0x3c1d4b44	0.009600464
235	0x3d0cbd82	0.034360416
236	0xbd8e1d32	-0.06939162
237	0xbba25b35	-0.0049547204
238	0x00000000	0.0
239	0x3d82569b	0.06364175
240	0xbc1939fe	-0.009352205
241	0xbba541a7	-0.0050432268
242	0x00000000	0.0
243	0xbc7f58f6	-0.015585175
244	0x3c58ae65	0.013225173
245	0xbbe73b5c	-0.0070566367
246	0x3cc11c29	0.023572998
247	0x3b7b27ee	0.003832336
248	0x3d65614c	0.056000993
249	0xbe5c192a	-0.21493974
250	0xbce42a14	-0.027852096
251	0x3cf15ea4	0.029464073
252	0x3c663685	0.014051084
253	0x3d6d3879	0.057915185
254	0x3d5c548f	0.05379158
255	0xbeb6f274	-0.35731852

sequential/dense/MatMul f4 [300, 120]
0	0x3d340cf5	0.04395767
1	0x3dcb6d38	0.09932941
2	0xbde28844	-0.11061147
3	0x3d768142	0.060181864
4	0x3bcb2968	0.0062000044
5	0xbba37334	-0.0049880985
6	0xbcfea294	-0.031083383
7	0xbdb791b6	-0.08963339
8	0x3db9e7e0	0.0907743
9	0x3d2b092b	0.04175679
10	0x3ca180f9	0.01971482
11	0x3d0f9892	0.03505761
12	0x3cfa3c63	0.030546373
13	0x3d266033	0.040619086
14	0xbd215eb1	-0.039396945
15	0xbca21ad6	-0.019788187
16	0x3d66fc8e	0.0563932
17	0xbd766cf6	-0.060162507
18	0xbdc82259	-0.09772176
19	0xbde872af	-0.11349999
20	0x3d2532de	0.040331714
21	0x3de60205	0.11230854
22	0xbe17a1a8	-0.1480776
23	0xbda7fddd	-0.082027175
24	0xbd5df4c6	-0.054188512
25	0x3cc44539	0.02395879
26	0x3d2cdbd7	0.042201843
27	0xbd39fe92	-0.045408793
28	0x3df15b36	0.11784975
29	0x3c7e79da	0.015531981
30	0x3e06a941	0.13150503
31	0xbdaad8b8	-0.08342117
32	0xbcb20e38	-0.021735296
33	0xbd6346b7	-0.05548736
34	0xbc3f7c65	-0.011687373
35	0xbd9409e8	-0.07228452
36	0xbc42d3b9	-0.011891299
37	0xbdb66e90	-0.08907807
38	0x3cbebed8	0.02328436
39	0x3dc1fc14	0.09471908
40	0xbd954317	-0.07288187
41	0xbdebb0a0	-0.11508298
42	0x3dba9113	0.09109702
43	0x3d8202b2	0.0634817
44	0x3dcd9ad2	0.10039295
45	0xbcee1dfb	-0.02906703
46	0x3dad4023	0.08459499
47	0xbdca21d0	-0.098697305
48	0xbd18bcce	-0.037289433
49	0x3ddc8f3a	0.10769506
50	0xbd0cf2b9	-0.034411166
51	0xbdbd675c	-0.0924823
52	0x3d8f709a	0.07003899
53	0x3dc058cb	0.09391936
54	0x3d49ff4c	0.049315736
55	0x3d3eed33	0.04661293
56	0x3dca1a2a	0.09868272
57	0xbe12f464	-0.1435104
58	0x3df136d5	0.117780365
59	0xbd3ca1f2	-0.04605288
60	0xbd23cf90	-0.03999287
61	0x3e076fd4	0.13226253
62	0x3d9aff04	0.075681716
63	0x3e4d2f5a	0.20037594
64	0xbd1a0eef	-0.037611898
65	0xbd725441	-0.059162382
66	0x3daf7b61	0.085684545
67	0xbdd98df2	-0.10622777
68	0xbd7d1e9b	-0.061796766
69	0x3c951281	0.0181973
70	0xbdcf1d90	-0.101130605
71	0x3dfabfc6	0.12243609
72	0xbdb97210	-0.09054959
73	0xbd6a2f4b	-0.05717401
74	0x3c415e47	0.011802263
75	0xb9d02e34	-0.00039707276
76	0xbdd96432	-0.10614814
77	0x3e1c4e86	0.1526433
78	0x3de7beaf	0.11315667
79	0x3d8fcc75	0.07021419
80	0xbde10fd1	-0.10989345
81	0xbd6c1ed6	-0.057646595
82	0xbdc339ff	-0.09532546
83	0x3d94198a	0.07231434
84	0xbddf57c6	-0.10905413
85	0x3d9740a5	0.07385377
86	0x3d96f540	0.073709965
87	0xbd850279	-0.06494612
88	0xbdff039f	-0.124518625
89	0xbd5c2da7	-0.053754475
90	0x3c296161	0.010338158
91	0x3dff0eb6	0.12453978
92	0xbd909574	-0.07059756
93	0x3d5b480f	0.053535517
94	0x3d48d9c7	0.049035814
95	0xbd4e7b74	-0.050410703
96	0xbe1ce021	-0.15319873
97	0xbda25f0d	-0.07928286
98	0x3da68387	0.081305556
99	0xbbc1b924	-0.005911963
100	0x38dc008a	0.00010490518
101	0x3db738c4	0.08946374
102	0xbe3bd0b6	-0.18341336
103	0xbcdf7074	-0.027275302
104	0xbcb2eb33	-0.021840667
105	0xbd33a30f	-0.043856677
106	0xbdfdbf71	-0.1239003
107	0x3c50972c	0.012731355
108	0x3ddfdcfd	0.10930822
109	0x3dbfed73	0.09371462
110	0x3dbe9dc3	0.093074344
111	0x3df6a5da	0.120433524
112	0x3e091460	0.13386679
113	0x3d3480eb	0.04406826
114	0xbe006c73	-0.1254137
115	0x3d9c5f95	0.07635418
116	0xbd9b236c	-0.075751156
117	0xbdac667a	-0.08417983
118	0xbe3b591e	-0.18295714
119	0x3e06652f	0.13124536
120	0xbed1c621	-0.40971473
121	0xbe896a50	-0.26838923
122	0xbe0697da	-0.13143864
123	0xbe2c9e8e	-0.16857359
124	0xbe8c8088	-0.27441812
125	0xbea4af59	-0.3216503
126	0xbead9fe2	-0.33911043
127	0xbeae6ed4	-0.3406893
128	0xbdcd8444	-0.10034993
129	0xbe9f4159	-0.31104544
130	0xbe674b4d	-0.22587319
131	0xbe0b1533	-0.13582306
132	0xbe007cb4	-0.1254757
133	0xbe2b945b	-0.16755812
134	0xbe8a8531	-0.27054742
135	0xbea080fc	-0.31348407
136	0xbec28e4a	-0.37999183
137	0xbec34992	-0.38142067
138	0xbe7a3fc1	-0.24438383
139	0xbeb3f1df	-0.3514547
140	0x3d64948e	0.055805735
141	0x3d487e99	0.048948858
142	0xbdc3d3bd	-0.0956187
143	0xbd04052d	-0.0322315
144	0xbd0a29a1	-0.033731107
145	0x3df74198	0.12073058
146	0x3b90664a	0.004406725
147	0x3cded654	0.027201809
148	0x3d2b7fbe	0.04186987
149	0x3db8fb9b	0.09032365
150	0x3e20b4fa	0.15694037
151	0x3ce38104	0.02777148
152	0x3c054194	0.008133311
153	0x3da70be3	0.08156564
154	0x3c9cb396	0.019128602
155	0x3dee404d	0.11633358
156	0xbca8eb38	-0.020619974
157	0x3cb63a12	0.022244487
158	0x3dab2a7b	0.08357712
159	0x3cc79b57	0.024366064
160	0xbd14fdd6	-0.03637489
161	0x3e32f5db	0.17476599
162	0x3d0fec6a	0.03513757
163	0x3934e714	0.00017252221
164	0x3e3413c9	0.17585672
165	0x3e4d2a2a	0.20035616
166	0x3e388cb9	0.18022431
167	0xbbdadf21	-0.006679431
168	0x3df49549	0.119425364
169	0x3d6e60e6	0.05819788
170	0xbddaadf9	-0.10677714
171	0x3d8e02ac	0.06934103
172	0x3dfc8234	0.12329522
173	0x3e1a0054	0.15039188
174	0x3e3bc9f4	0.18338758
175	0x3bca5f54	0.006175915
176	0x3e6ad2f1	0.2293203
177	0x3dccd253	0.10001054
178	0x3e726506	0.2367135
179	0x3da705fd	0.08155439
180	0x3dec965e	0.11552118
181	0x3e4311dc	0.19049782
182	0x3e08dd69	0.13365711
183	0x3daac6b7	0.08338683
184	0xbc8bfceb	-0.017088374
185	0x3e4a4a79	0.19754972
186	0x3d3b1881	0.045677666
187	0xbbda95b1	-0.0066706766
188	0x3e0e7746	0.13912687
189	0x3e1d0611	0.15334345
190	0x3e161ecb	0.14660184
191	0xbdf9f236	-0.12204401
192	0x3e172d96	0.14763483
193	0x3e2d45d2	0.16921166
194	0xbca52e8e	-0.0201638
195	0xbc41aee8	-0.011821486
196	0x3e36d5bf	0.17854975
197	0x3d3a2e58	0.045454353
198	0xbde6ce51	-0.112698205
199	0x3d6be6fd	0.057593334
200	0xbd7cbdd9	-0.06170449
201	0x3dce2d3d	0.10067222
202	0x3e41b1e2	0.18915513
203	0x3ded44da	0.11585398
204	0xbdc615be	-0.09672116
205	0x3ea68679	0.3252447
206	0xbd144b0b	-0.03620438
207	0xbdc5cf4f	-0.096586816
208	0x3e28bc2a	0.16478029
209	0x3e9a1baf	0.30099246
210	0x3bebfd37	0.0072018164
211	0xbdddad2b	-0.10824045
212	0x3dc87849	0.097885676
213	0x3e9730b0	0.29529333
214	0x3cb78221	0.022400917
215	0x3da9b940	0.08287287
216	0xbddef0e7	-0.10885792
217	0x3e2c7e08	0.16844952
218	0x3e19f42f	0.15034555
219	0xbd8b9ed5	-0.06817404
220	0x3dc33a1f	0.0953257
221	0x3c9f24a8	0.019426659
222	0x3e2ac348	0.16676056
223	0x3ecb4b1d	0.39705744
224	0xbcc7c3fd	-0.024385447
225	0xbe317a5d	-0.17331834
226	0x3e3762eb	0.17908828
227	0x3c9a6fa9	0.018852072
228	0xbd4bed1d	-0.049786676
229	0x3d2578cc	0.040398404
230	0x3c5b7a93	0.013395923
231	0x3aeedb93	0.0018223397
232	0x3e427ff4	0.18994123
233	0x3e93832d	0.28811017
234	0x3e0df769	0.1386391
235	0x3dfedb44	0.12444165
236	0xbcb3cfd2	-0.021949682
237	0x3d5b2e11	0.05351073
238	0x3dfd9c3b	0.12383314
239	0xbc3aefc4	-0.011409704
240	0x3e5fec1d	0.21867414
241	0x3bfef76d	0.0077809603
242	0x3d015856	0.031578384
243	0x3da613da	0.08109255
244	0x3ddf4f28	0.1090377
245	0x3e30669d	0.17226644
246	0x3d3f5ee1	0.046721343
247	0x3e376a30	0.17911601
248	0x3e4c761d	0.19966932
249	0x3e6d77fc	0.23190302
250	0x3def6220	0.11688638
251	0x3dba575a	0.09098692
252	0x3d35c678	0.044378728
253	0x3e0b2a87	0.13590442
254	0x3e816c9f	0.25278184
255	0x3e5c9a7f	0.2154331

sequential/dense_1/MatMul f4 [100, 300]
0	0xbd7b3fb8	-0.061340064
1	0x3d075819	0.033043
2	0xbdc2b942	-0.095079914
3	0x3e1aef26	0.1513029
4	0x3d834a53	0.064106606
5	0x3de58b79	0.11208243
6	0x3bb6a0c3	0.0055733635
7	0x3e39002c	0.18066472
8	0x3e21eb13	0.1581233
9	0xbb33a006	-0.0027408614
10	0x3dfb66c0	0.122754574
11	0x3e16aa00	0.14713287
12	0x3d6d1cea	0.057888903
13	0xbdf43f75	-0.11926166
14	0x3d810a59	0.06300802
15	0xbd1dc034	-0.038513377
16	0x3d0f767e	0.035025112
17	0xbd2496de	-0.04018294
18	0x3e38cd05	0.18046959
19	0x3cd0c9f2	0.02548692
20	0x3da301e5	0.07959346
21	0x3d881b30	0.066458106
22	0xbd9086a2	-0.07056929
23	0x3c8bf954	0.017086662
24	0x3e3cde67	0.18444215
25	0x3ddb634b	0.10712298
26	0xbcf30cf0	-0.029669255
27	0xbdc234dd	-0.09482739
28	0x3d9cd910	0.07658589
29	0x3cff4dd6	0.031165045
30	0xbd99d776	-0.07511799
31	0x3dc2c8b3	0.095109366
32	0x3c4e5681	0.012593866
33	0xbd8733f2	-0.06601705
34	0xbd7e4b99	-0.062083814
35	0xbdcdc960	-0.10048175
36	0x3e2cb1fe	0.16864774
37	0x3dff1cf8	0.12456697
38	0xbd5b5d22	-0.053555615
39	0xbc6be8f3	-0.014398801
40	0x3d8ec500	0.069711685
41	0x3d9fc68f	0.07801544
42	0x3adf8379	0.0017052732
43	0xbe77ceed	-0.2420003
44	0xbe6b35f1	-0.22969796
45	0xbb1e38aa	-0.002414266
46	0x3e0c6106	0.13708887
47	0x3dc42028	0.09576446
48	0x3e159c07	0.14610301
49	0x3e0145c9	0.12624277
50	0xbddc76be	-0.10764836
51	0x3b555d3c	0.0032556793
52	0xbdcbcd07	-0.09951215
53	0xbce2af86	-0.027671587
54	0x3e473093	0.19452123
55	0x3cf292e6	0.029611062
56	0x3d1e1ff2	0.038604684
57	0x3db92cd2	0.09041752
58	0x3db9433f	0.09046029
59	0x3c7978b4	0.015226532
60	0x3b9a5830	0.00471022
61	0xbd07c4c0	-0.03314662
62	0x3d1dadca	0.038495816
63	0x3e4f5ec5	0.20250995
64	0x3d58f75c	0.052970275
65	0x3bbc7346	0.0057510464
66	0x3d9f63a0	0.07782674
67	0xbd29bc5a	-0.04143939
68	0x3e2765c0	0.16347408
69	0xbd326e07	-0.04356196
70	0xbdb4daa3	-0.08830764
71	0x3ca36b44	0.01994861
72	0x3ca8a8a8	0.020588234
73	0x3cb9e704	0.022693165
74	0xbd517e1c	-0.051145658
75	0x3a7afa2d	0.0009574022
76	0x3e042ffc	0.1290893
77	0xbd93298a	-0.07185657
78	0xbe99d0b1	-0.3004203
79	0x3d7d54e9	0.061848555
80	0x3e81670d	0.25273934
81	0xbd14d7d5	-0.036338646
82	0x3ca8acc4	0.020590194
83	0x3df27cfd	0.11840246
84	0xbcd1978b	-0.025584957
85	0x3c8233a9	0.015893774
86	0xbc889ac0	-0.016675353
87	0xbdc7ee22	-0.09762217
88	0xbd484119	-0.048890207
89	0x3cefc0af	0.029266683
90	0xbd1f1166	-0.03883495
91	0x3e085425	0.13313349
92	0xbdf8be9c	-0.12145731
93	0xbd5a015b	-0.05322395
94	0xbbbb4178	-0.0057145916
95	0x3d6557e0	0.055992007
96	0x3d8cb12c	0.0686973
97	0xbd10ce12	-0.035352774
98	0xb8af46ab	-8.357813e-05
99	0x3e75e322	0.24012426
100	0xbd7e2e73	-0.062056016
101	0xbdae72f5	-0.0851802
102	0xba9d5f40	-0.0012006536
103	0x3db4ec88	0.08834177
104	0x3e60524c	0.21906394
105	0x3dc65b17	0.09685343
106	0xbd060ded	-0.032728124
107	0x3ba6a40f	0.0050854753
108	0x3e539fd6	0.20666441
109	0x3e3f54dd	0.18684717
110	0xbcf19b04	-0.029492863
111	0xbd49a15c	-0.04922615
112	0xbd03c98e	-0.03217464
113	0xbbaa7142	-0.0052014897
114	0xbd239328	-0.03993526
115	0xbdde7153	-0.10861459
116	0xbcda32c2	-0.026635531
117	0xbc84d2c8	-0.01621379
118	0x3d344ad4	0.044016674
119	0x3ddf53b0	0.10904634
120	0xbc95c270	-0.018281192
121	0x3dbed7d7	0.09318512
122	0x3d927843	0.07151844
123	0x3d0794bf	0.03310084
124	0x3c8f228b	0.017472526
125	0x3de66ce2	0.112512365
126	0xbdbbbe76	-0.09167187
127	0xbd3b4e38	-0.045728892
128	0xbdc537d2	-0.096297875
129	0x3e0f2cb9	0.13981904
130	0x3c415b08	0.011801489
131	0x3d834c31	0.06411017
132	0x3de6c02f	0.11267125
133	0x3d4a619e	0.0494095
134	0x3e07888d	0.13235684
135	0xbdcaa825	-0.09895352
136	0xbe20bc8b	-0.15696923
137	0xbc1427f8	-0.009042732
138	0x3e11b118	0.14227712
139	0x3deff521	0.117166765
140	0xbd7d09b4	-0.06177683
141	0x3dd0f567	0.10203057
142	0xbcdcd908	-0.026958957
143	0xbcb011e8	-0.021492913
144	0x3dd8f699	0.1059391
145	0x3db6480d	0.08900461
146	0x3d6e3706	0.058157943
147	0xbbdeae7a	-0.0067957016
148	0x3ca159bc	0.019696109
149	0x3da2c899	0.07948417
150	0x3e3564ba	0.17714205
151	0x3db7a388	0.08966738
152	0xbd732147	-0.059357908
153	0x3e267148	0.16254151
154	0x3d361daa	0.044461884
155	0x3e5984b4	0.21242028
156	0x3da15d98	0.0787918
157	0xbd8252c1	-0.0636344
158	0xbdb97d1e	-0.09057067
159	0xbc282087	-0.010261661
160	0xbd35d05a	-0.044388153
161	0xbdb092ad	-0.08621726
162	0xbca8728f	-0.020562438
163	0x3da7d25c	0.0819442
164	0x3d6870af	0.05674809
165	0x3d2de107	0.04245093
166	0xbc43bdf0	-0.01194714
167	0xbcf8f12e	-0.030388441
168	0xbd5e42a5	-0.054262776
169	0x3e4c1570	0.19930053
170	0x3dbe063e	0.09278534
171	0xbcd0ea20	-0.025502264
172	0x3da9b07d	0.082856156
173	0x3dc22349	0.09479386
174	0x3e1cdab8	0.1531781
175	0x3e25a11b	0.16174738
176	0x3c8e88aa	0.01739915
177	0xbdb89290	-0.090123296
178	0x3dcb9b71	0.099417575
179	0x3e147e38	0.14501274
180	0x3d2807d8	0.041023105
181	0x3d0197b6	0.031638823
182	0x3d4b6d6e	0.049664907
183	0x3ddde430	0.10834539
184	0x3d3fe427	0.046848442
185	0xbd99dd5b	-0.07512923
186	0x3d13f969	0.036126528
187	0x3d58d643	0.05293871
188	0x3d52feb4	0.051512435
189	0x3e53cb4b	0.20683019
190	0x3b1546df	0.0022777838
191	0xbd0c79b9	-0.03429577
192	0xbd82af39	-0.06381077
193	0x3dc5ebc0	0.09664106
194	0x3d5ce214	0.053926542
195	0x3df3fc22	0.11913325
196	0xbc7d3b3a	-0.015456015
197	0x3cc83104	0.024437435
198	0x3dd7bb25	0.10533742
199	0x3bb278b7	0.0054465192
200	0x3e066365	0.13123854
201	0xbebacc73	-0.36484107
202	0xbd8b072c	-0.06788477
203	0x3e21716c	0.15765923
204	0xbd6a4061	-0.057190303
205	0x3dc796af	0.097455375
206	0x3dd3a715	0.10334603
207	0x3cbe85cc	0.023257159
208	0xbd2ec914	-0.04267223
209	0x3e12a627	0.14321195
210	0x3c945ddf	0.018111167
211	0x3d83e7a7	0.064406686
212	0x3e247287	0.16059314
213	0x3db45e41	0.0880704
214	0x3dfc96ff	0.12333488
215	0xbda6759c	-0.08127901
216	0xbd18d76a	-0.03731481
217	0x3c69f9bc	0.014280733
218	0x3c5984b4	0.013276268
219	0x3ded8cff	0.115991585
220	0x3dc39503	0.09549906
221	0xbd4f5880	-0.05062151
222	0x3e69ed27	0.22844373
223	0x3d838fb8	0.064238966
224	0xbcad9941	-0.021191241
225	0x3b245b64	0.0025078887
226	0xbd2e9785	-0.04262497
227	0xb893484a	-7.022971e-05
228	0x3bd01151	0.0063497205
229	0x3dd2d7ef	0.10295092
230	0x3dc68760	0.096937895
231	0xbd7519cd	-0.05983906
232	0xbd067d95	-0.032834608
233	0x3c8bd946	0.017071377
234	0x3a56a409	0.00081878953
235	0xbcfdbdd5	-0.030974308
236	0x3d1f391d	0.038872827
237	0xbd98174d	-0.07426319
238	0xbcb08fa4	-0.021552868
239	0x3e36b241	0.17841436
240	0x3d09478d	0.0335155
241	0x3de7edbf	0.11324643
242	0xbdeecd95	-0.116603054
243	0x3d9bd370	0.07608688
244	0x3d6be76f	0.05759376
245	0xbd920022	-0.071289316
246	0x3d45df46	0.048308633
247	0x3dc032c7	0.09384685
248	0xbd44ccae	-0.04804676
249	0x3dab9d56	0.08379619
250	0x3e21e0e6	0.15808448
251	0x3e4c2ab3	0.19938163
252	0x3dfdfca4	0.12401703
253	0xbd93b68e	-0.07212554
254	0xbc0975cd	-0.008389902
255	0xbdd92ed3	-0.10604634

sequential/dense_2/MatMul f4 [7, 100]
0	0xbeedca8c	-0.46443594
1	0x3e061d40	0.13097095
2	0xbb8f5268	-0.0043738373
3	0x3cab09ec	0.020878755
4	0x3df74caf	0.12075173
5	0xbe54a506	-0.20766076
6	0xbecccea0	-0.40001392
7	0x3e59f57e	0.21285054
8	0x3f363d3d	0.7118719
9	0xbe83f921	-0.25776008
10	0xbacbb08a	-0.0015540284
11	0xbe9795a9	-0.2960637
12	0x3cdf0dcf	0.027228264
13	0x3df133bf	0.11777448
14	0x3e75f8d0	0.24020696
15	0xbe83ca53	-0.257403
16	0x3e237227	0.15961514
17	0xbe8fdf40	-0.28100014
18	0x3d7bc97b	0.061471444
19	0xbe2b26df	-0.16714047
20	0xbe9f72cd	-0.31142274
21	0x3f03b787	0.51451916
22	0xbe104d03	-0.14091878
23	0xbe408806	-0.18801889
24	0x3e3b4fa6	0.18292102
25	0x3d3b12d5	0.045672256
26	0x3d52a9a9	0.05143133
27	0xbbc374e7	-0.0059648636
28	0xbd98d59a	-0.07462616
29	0xbd0658ed	-0.03279965
30	0xbe93bce3	-0.28855047
31	0xbddc3d62	-0.10753895
32	0x3e2d4723	0.16921668
33	0x3d533b05	0.051569957
34	0x3ea5caf5	0.32381406
35	0x3e88b02a	0.26696903
36	0x3e337638	0.17525566
37	0xbda01223	-0.07815959
38	0x3ebf8ff2	0.3741451
39	0xbd31c068	-0.043396384
40	0xbe56439b	-0.20924227
41	0xbb921c92	-0.0044589723
42	0x3eb8ec1a	0.3611763
43	0x3f9e7e11	1.2382222
44	0x3bced5ff	0.0063121314
45	0xbdbb1b54	-0.09136072
46	0xbe840d14	-0.25791228
47	0xbe2b70e4	-0.16742283
48	0xbda67c7d	-0.08129213
49	0xbe79ae4a	-0.24382892
50	0x3eb3c68b	0.35112414
51	0x3e54ba69	0.20774235
52	0x3e329f69	0.17443623
53	0x3d3d5c8d	0.04623084
54	0xbc834848	-0.016025677
55	0x3c8b0645	0.016970763
56	0xbec3acfa	-0.38217908
57	0xbdf4a5e6	-0.11945705
58	0x3e448863	0.19192652
59	0x3e4dec12	0.20109585
60	0x3d4f6c83	0.050640594
61	0x3dcbcf48	0.09951645
62	0x3e9d2d7e	0.3069877
63	0xbe76d2a0	-0.24103785
64	0x3e3bf4c0	0.18355083
65	0xbce31657	-0.027720613
66	0xbc6265f1	-0.01381825
67	0xbe301c62	-0.17198327
68	0x3c046553	0.008080798
69	0xbe20c1db	-0.1569895
70	0x3dfbf5f7	0.123027734
71	0x3ddff5cd	0.10935555
72	0x3db78285	0.089604415
73	0xbe1fa414	-0.15589935
74	0x3e943535	0.28946844
75	0x3d827f13	0.06371894
76	0xbcce1d2a	-0.02516039
77	0x3ed7d571	0.4215503
78	0xbd9d6d41	-0.07686854
79	0xbe1dbcf6	-0.15404114
80	0x3e115784	0.14193541
81	0xbf06fc61	-0.5272885
82	0x3e1d97c9	0.15389933
83	0xbe96b777	-0.29436848
84	0x3ee46c93	0.44614086
85	0x3e6f0c68	0.23344576
86	0x3d09f38e	0.033679537
87	0x3df5d0de	0.12002729
88	0x3e443ddf	0.19164227
89	0x3ed953ee	0.42446846
90	0x3e9aab57	0.30208847
91	0xbdb90f37	-0.09036105
92	0xba04cb64	-0.0005065708
93	0x3e41f988	0.18942845
94	0xbe826288	-0.25465798
95	0xbdcf2b16	-0.1011564
96	0x3c2a8c57	0.010409436
97	0x3e0a2924	0.13492256
98	0xbe63af1f	-0.22234772
99	0x3e595edf	0.21227597
100	0x3d24676f	0.040137704
101	0xbe10ad63	-0.14128642
102	0xbc9034b9	-0.017603265
103	0x3e048c47	0.12944137
104	0x3e81f640	0.25383186
105	0xbd1cd938	-0.038293093
106	0xbe0db329	-0.13837875
107	0xbdc79f9d	-0.09747241
108	0x3e6b3393	0.22968893
109	0xbe3a2c91	-0.18181063
110	0x3e7e0c31	0.24809338
111	0xbdffbdae	-0.124873504
112	0xbcdddb70	-0.027082175
113	0xbeb413f3	-0.3517147
114	0x3ed1ae68	0.40953374
115	0xbe8fd20b	-0.28089938
116	0x3dd0fae0	0.102041006
117	0xbe8a496e	-0.27009147
118	0xbbd93519	-0.006628644
119	0xbe25e52a	-0.162007
120	0x3e664337	0.22486578
121	0xbd88e099	-0.066834636
122	0xbe077b22	-0.13230565
123	0xbe6bdcf4	-0.23033506
124	0x3e452a98	0.1925453
125	0xbe527ef1	-0.20556237
126	0x39cce95b	0.00039083775
127	0x3f4e9e1c	0.80710006
128	0xbe588973	-0.21146183
129	0x3e5e2468	0.21693575
130	0xbcda4d3c	-0.026648156
131	0x3f086c4b	0.5329024
132	0xbe44a18b	-0.19202249
133	0x3d030d85	0.031995315
134	0x3e8f9a3c	0.2804736
135	0xbcd9ec63	-0.026601976
136	0xbe22d111	-0.15900065
137	0x3eda2492	0.42606026
138	0x3eaa2b86	0.3323633
139	0x3ea1d66f	0.31608912
140	0xbdbd2dc0	-0.09237242
141	0x3e609091	0.21930148
142	0xbdb9b6fd	-0.09068105
143	0xbecebb03	-0.40377054
144	0x3ef0eb72	0.4705463
145	0x3f8b219c	1.0869632
146	0xbeb38a97	-0.35066673
147	0x3e7bc40c	0.24586505
148	0x3dc50838	0.09620708
149	0x3e662485	0.22474869
150	0x3ea576cc	0.32317197
151	0xbde57fa7	-0.112059884
152	0x3e8d5417	0.27603218
153	0xbe8b2de2	-0.27183443
154	0xbe668669	-0.22512211
155	0x3d7c1f0e	0.061553054
156	0x3e51b1bc	0.20477957
157	0xbe84ce9c	-0.2593888
158	0xbb25fade	-0.002532653
159	0x3e274bb7	0.16337477
160	0x3e2452c1	0.16047193
161	0x3d4b92f8	0.049700707
162	0xbd1a4b61	-0.037669543
163	0xbdf88cb5	-0.12136213
164	0xbe00140f	-0.12507652
165	0xbd7435ac	-0.059621498
166	0xbc982447	-0.018571986
167	0xbe676b88	-0.22599614
168	0x3ec9104a	0.3927024
169	0x3f8c6f0b	1.0971388
170	0x3eccbc52	0.39987427
171	0x3cf33795	0.02968959
172	0x3df6ecea	0.120569065
173	0x3cdb6526	0.02678163
174	0xbd6851e1	-0.05671871
175	0x3e58de45	0.21178539
176	0x3e375c06	0.17906198
177	0xbe20e734	-0.15713197
178	0xbe280212	-0.1640704
179	0xbe2a8241	-0.1665125
180	0xbc8e037e	-0.01733565
181	0x3ca5f8b9	0.020260202
182	0x3efbb8a4	0.49164307
183	0x3de3d1cc	0.11124
184	0x3df57849	0.11985833
185	0x3d05902d	0.0326082
186	0x3e2b5eaf	0.16735338
187	0x3dc8c200	0.098026276
188	0x3e46c48f	0.19410919
189	0x3e92e486	0.28689975
190	0x3ee87d0c	0.45407903
191	0x3e4d74bd	0.20064063
192	0xbe046fc0	-0.12933254
193	0xbd56d08c	-0.05244498
194	0x3eede94e	0.4646706
195	0xbe0f05c0	-0.13967037
196	0x3e9627ba	0.29327184
197	0xbde1d6fc	-0.11027333
198	0xbe244b99	-0.16044463
199	0xbdd63a17	-0.104602985
200	0xbef88444	-0.4853841
201	0x3e0037aa	0.12521234
202	0x3e0ff41f	0.14057969
203	0x3ea26bae	0.31722778
204	0xbe40d108	-0.18829739
205	0x3dcacc5f	0.09902262
206	0x3e558ebb	0.20855229
207	0xbe2ec0a0	-0.17065668
208	0xbec8d533	-0.39225158
209	0xbe443095	-0.19159158
210	0xbd2b345b	-0.041797977
211	0xbeba9a19	-0.36445692
212	0x3e106f50	0.14104962
213	0xbf147b2d	-0.5800045
214	0x3eb79fdf	0.3586416
215	0x3e035c18	0.128281
216	0x3e8cfb38	0.27535415
217	0xbd910d6b	-0.070826374
218	0xbe03f4bd	-0.12886329
219	0xbe519caa	-0.20469919
220	0xbc64bc43	-0.013960901
221	0xbec8c31c	-0.39211357
222	0x3e6cb121	0.23114444
223	0xbd945964	-0.072436124
224	0x3dbaec35	0.09127084
225	0x3e27ba5e	0.16379687
226	0xbde7b830	-0.11314428
227	0xbea107a1	-0.31451133
228	0xbe33cebc	-0.17559332
229	0xbc4268e2	-0.011865826
230	0xbeaadcc0	-0.33371544
231	0xbe6467a2	-0.22305158
232	0xbe1dcbde	-0.154098
233	0xbdb391c5	-0.08768038
234	0xbe64ec9c	-0.22355884
235	0x3e1bcf51	0.15215804
236	0x3dfeb1c9	0.124362536
237	0x3e0e1d33	0.13878326
238	0x3d006868	0.03134957
239	0xbe8b5b3f	-0.27218053
240	0x3df98bf9	0.12184901
241	0x3e51b2cb	0.2047836
242	0xbe1f96a2	-0.15584806
243	0xbebded9c	-0.37095344
244	0xbe77c3cb	-0.24195783
245	0xbdc1c2fc	-0.094610184
246	0xbd865953	-0.06560006
247	0x3e3c0a2a	0.18363252
248	0xbbb425c5	-0.0054976665
249	0xbe6e86c9	-0.23293604
250	0x3ea471b7	0.32118008
251	0xbe5c31c6	-0.21503362
252	0x3e520a0c	0.20511645
253	0x3e1c1a59	0.15244426
254	0xbe3a071c	-0.18166775
255	0xbe2ff9fa	-0.17185202
